…
[2026-03-24 18:11:45,206] INFO: [0;37mWarning: module Block is treated as a zero-op.[0m
[2026-03-24 18:11:45,206] INFO: [0;37mWarning: module ParticleTransformer is treated as a zero-op.[0m
[2026-03-24 18:11:45,206] INFO: [0;37mWarning: module ParticleTransformerWrapper is treated as a zero-op.[0m
[2026-03-24 18:11:49,059] INFO: [0;37mParticleTransformerWrapper(
  |2.123 M, 99.021% Params, 341.564 MMac, 100.000% MACs|
  (mod): ParticleTransformer(
    |2.123 M, 99.021% Params, 341.564 MMac, 100.000% MACs|
    (trimmer): SequenceTrimmer(|0.0 M, 0.000% Params, 0.0 Mac, 0.000% MACs|)
    (embed): Embed(
      |0.134 M, 6.254% Params, 17.061 MMac, 4.995% MACs|
      (input_bn): BatchNorm1d(17, eps=1e-05, momentum=0.1, affine=True, track_running_stats=True, |0.0 M, 0.002% Params, 4.352 KMac, 0.001% MACs|)
      (embed): Sequential(
        |0.134 M, 6.252% Params, 17.057 MMac, 4.994% MACs|
        (0): LayerNorm((17,), eps=1e-05, elementwise_affine=True, |0.0 M, 0.000% Params, 0.0 Mac, 0.000% MACs|)
        (1): Linear(in_features=17, out_features=128, bias=True, |0.002 M, 0.107% Params, 278.656 KMac, 0.082% MACs|)
        (2): GELU(approximate='none', |0.0 M, 0.000% Params, 0.0 Mac, 0.000% MACs|)
        (3): LayerNorm((128,), eps=1e-05, elementwise_affine=True, |0.0 M, 0.000% Params, 0.0 Mac, 0.000% MACs|)
        (4): Linear(in_features=128, out_features=512, bias=True, |0.066 M, 3.081% Params, 8.389 MMac, 2.456% MACs|)
        (5): GELU(approximate='none', |0.0 M, 0.000% Params, 0.0 Mac, 0.000% MACs|)
        (6): LayerNorm((512,), eps=1e-05, elementwise_affine=True, |0.0 M, 0.000% Params, 0.0 Mac, 0.000% MACs|)
        (7): Linear(in_features=512, out_features=128, bias=True, |0.066 M, 3.063% Params, 8.389 MMac, 2.456% MACs|)
        (8): GELU(approximate='none', |0.0 M, 0.000% Params, 0.0 Mac, 0.000% MACs|)
      )
    )
    (pair_embed): PairEmbed(
      |0.01 M, 0.446% Params, 78.993 MMac, 23.127% MACs|
      (embed): Sequential(
        |0.01 M, 0.446% Params, 78.993 MMac, 23.127% MACs|
        (0): BatchNorm1d(4, eps=1e-05, momentum=0.1, affine=True, track_running_stats=True, |0.0 M, 0.000% Params, 66.048 KMac, 0.019% MACs|)
        (1): Conv1d(4, 64, kernel_size=(1,), stride=(1,), |0.0 M, 0.015% Params, 2.642 MMac, 0.773% MACs|)
        (2): BatchNorm1d(64, eps=1e-05, momentum=0.1, affine=True, track_running_stats=True, |0.0 M, 0.006% Params, 1.057 MMac, 0.309% MACs|)
        (3): GELU(approximate='none', |0.0 M, 0.000% Params, 0.0 Mac, 0.000% MACs|)
        (4): Conv1d(64, 64, kernel_size=(1,), stride=(1,), |0.004 M, 0.194% Params, 34.345 MMac, 10.055% MACs|)
        (5): BatchNorm1d(64, eps=1e-05, momentum=0.1, affine=True, track_running_stats=True, |0.0 M, 0.006% Params, 1.057 MMac, 0.309% MACs|)
        (6): GELU(approximate='none', |0.0 M, 0.000% Params, 0.0 Mac, 0.000% MACs|)
        (7): Conv1d(64, 64, kernel_size=(1,), stride=(1,), |0.004 M, 0.194% Params, 34.345 MMac, 10.055% MACs|)
        (8): BatchNorm1d(64, eps=1e-05, momentum=0.1, affine=True, track_running_stats=True, |0.0 M, 0.006% Params, 1.057 MMac, 0.309% MACs|)
        (9): GELU(approximate='none', |0.0 M, 0.000% Params, 0.0 Mac, 0.000% MACs|)
        (10): Conv1d(64, 8, kernel_size=(1,), stride=(1,), |0.001 M, 0.024% Params, 4.293 MMac, 1.257% MACs|)
        (11): BatchNorm1d(8, eps=1e-05, momentum=0.1, affine=True, track_running_stats=True, |0.0 M, 0.001% Params, 132.096 KMac, 0.039% MACs|)
        (12): GELU(approximate='none', |0.0 M, 0.000% Params, 0.0 Mac, 0.000% MACs|)
      )
    )
    (blocks): ModuleList(
      (0-7): 8 x Block(
        |0.198 M, 9.226% Params, 29.574 MMac, 8.658% MACs|
        (pre_attn_norm): LayerNorm((128,), eps=1e-05, elementwise_affine=True, |0.0 M, 0.000% Params, 0.0 Mac, 0.000% MACs|)
        (attn): MultiheadAttention(
          |0.066 M, 3.081% Params, 12.796 MMac, 3.746% MACs|
          (out_proj): NonDynamicallyQuantizableLinear(in_features=128, out_features=128, bias=True, |0.0 M, 0.000% Params, 0.0 Mac, 0.000% MACs|)
        )
        (post_attn_norm): LayerNorm((128,), eps=1e-05, elementwise_affine=True, |0.0 M, 0.000% Params, 0.0 Mac, 0.000% MACs|)
        (dropout): Dropout(p=0.1, inplace=False, |0.0 M, 0.000% Params, 0.0 Mac, 0.000% MACs|)
        (pre_fc_norm): LayerNorm((128,), eps=1e-05, elementwise_affine=True, |0.0 M, 0.000% Params, 0.0 Mac, 0.000% MACs|)
        (fc1): Linear(in_features=128, out_features=512, bias=True, |0.066 M, 3.081% Params, 8.389 MMac, 2.456% MACs|)
        (act): GELU(approximate='none', |0.0 M, 0.000% Params, 0.0 Mac, 0.000% MACs|)
        (act_dropout): Dropout(p=0.1, inplace=False, |0.0 M, 0.000% Params, 0.0 Mac, 0.000% MACs|)
        (post_fc_norm): LayerNorm((512,), eps=1e-05, elementwise_affine=True, |0.0 M, 0.000% Params, 0.0 Mac, 0.000% MACs|)
        (fc2): Linear(in_features=512, out_features=128, bias=True, |0.066 M, 3.063% Params, 8.389 MMac, 2.456% MACs|)
      )
    )
    (cls_blocks): ModuleList(
      (0-1): 2 x Block(
        |0.198 M, 9.226% Params, 4.459 MMac, 1.305% MACs|
        (pre_attn_norm): LayerNorm((128,), eps=1e-05, elementwise_affine=True, |0.0 M, 0.000% Params, 0.0 Mac, 0.000% MACs|)
        (attn): MultiheadAttention(
          |0.066 M, 3.081% Params, 4.327 MMac, 1.267% MACs|
          (out_proj): NonDynamicallyQuantizableLinear(in_features=128, out_features=128, bias=True, |0.0 M, 0.000% Params, 0.0 Mac, 0.000% MACs|)
        )
        (post_attn_norm): LayerNorm((128,), eps=1e-05, elementwise_affine=True, |0.0 M, 0.000% Params, 0.0 Mac, 0.000% MACs|)
        (dropout): Dropout(p=0, inplace=False, |0.0 M, 0.000% Params, 0.0 Mac, 0.000% MACs|)
        (pre_fc_norm): LayerNorm((128,), eps=1e-05, elementwise_affine=True, |0.0 M, 0.000% Params, 0.0 Mac, 0.000% MACs|)
        (fc1): Linear(in_features=128, out_features=512, bias=True, |0.066 M, 3.081% Params, 66.048 KMac, 0.019% MACs|)
        (act): GELU(approximate='none', |0.0 M, 0.000% Params, 0.0 Mac, 0.000% MACs|)
        (act_dropout): Dropout(p=0, inplace=False, |0.0 M, 0.000% Params, 0.0 Mac, 0.000% MACs|)
        (post_fc_norm): LayerNorm((512,), eps=1e-05, elementwise_affine=True, |0.0 M, 0.000% Params, 0.0 Mac, 0.000% MACs|)
        (fc2): Linear(in_features=512, out_features=128, bias=True, |0.066 M, 3.063% Params, 65.664 KMac, 0.019% MACs|)
      )
    )
    (norm): LayerNorm((128,), eps=1e-05, elementwise_affine=True, |0.0 M, 0.000% Params, 0.0 Mac, 0.000% MACs|)
    (fc): Sequential(
      |0.001 M, 0.060% Params, 1.29 KMac, 0.000% MACs|
      (0): Linear(in_features=128, out_features=10, bias=True, |0.001 M, 0.060% Params, 1.29 KMac, 0.000% MACs|)
    )
  )
)[0m
[2026-03-24 18:11:49,061] INFO: Computational complexity:       341.56 MMac
[2026-03-24 18:11:49,061] INFO: Number of parameters:           2.14 M  
[2026-03-24 18:11:49,061] INFO: Using loss function CrossEntropyLoss() with options {'use_amp': True}
[2026-03-24 18:12:36,420] INFO: Create Tensorboard summary writer with comment JetClass_part0_ParT
…
